…
=10, quant_mode='symmetric', quant_scheme='uniform8', rank=-1, resume='', resume_quantize=False, save_path='./debug/', seed=None, start_epoch=0, teacher_arch='resnet101', temperature=6, weight_decay=0.0001, weight_percentile=0, workers=4, world_size=-1)
08-Oct-21 21:50:38 - => using pre-trained PyTorchCV model 'resnet18'
08-Oct-21 21:50:39 - match all modules defined in bit_config: True
08-Oct-21 21:50:39 - Q_ResNet18(
  (quant_input): QuantAct(activation_bit=8, full_precision_flag=False, quant_mode=symmetric, Act_min: 0.00, Act_max: 0.00)
  (quant_init_block_convbn): (QuantBnConv2d(
    (conv): Conv2d(3, 64, kernel_size=(7, 7), stride=(2, 2), padding=(3, 3), bias=False)
    (bn): BatchNorm2d(64, eps=1e-05, momentum=0.99, affine=True, track_running_stats=True)
  ), weight_bit=8, bias_bit=32, groups=1, wt-channel-wise=True, wt-percentile=0, quant_mode=symmetric)
  (quant_act_int32): QuantAct(activation_bit=16, full_precision_flag=False, quant_mode=symmetric, Act_min: 0.00, Act_max: 0.00)
  (pool): MaxPool2d(kernel_size=3, stride=2, padding=1, dilation=1, ceil_mode=False)
  (act): ReLU()
  (stage1.unit1): Q_ResBlockBn(
    (quant_act): QuantAct(activation_bit=8, full_precision_flag=False, quant_mode=symmetric, Act_min: 0.00, Act_max: 0.00)
    (quant_convbn1): (QuantBnConv2d(
      (conv): Conv2d(64, 64, kernel_size=(3, 3), stride=(1, 1), padding=(1, 1), bias=False)
      (bn): BatchNorm2d(64, eps=1e-05, momentum=0.99, affine=True, track_running_stats=True)
    ), weight_bit=8, bias_bit=32, groups=1, wt-channel-wise=True, wt-percentile=0, quant_mode=symmetric)
    (quant_act1): QuantAct(activation_bit=8, full_precision_flag=False, quant_mode=symmetric, Act_min: 0.00, Act_max: 0.00)
    (quant_convbn2): (QuantBnConv2d(
      (conv): Conv2d(64, 64, kernel_size=(3, 3), stride=(1, 1), padding=(1, 1), bias=False)
      (bn): BatchNorm2d(64, eps=1e-05, momentum=0.99, affine=True, track_running_stats=True)
    ), weight_bit=8, bias_bit=32, groups=1, wt-channel-wise=True, wt-percentile=0, quant_mode=symmetric)
    (quant_act_int32): QuantAct(activation_bit=16, full_precision_flag=False, quant_mode=symmetric, Act_min: 0.00, Act_max: 0.00)
  )
  (stage1.unit2): Q_ResBlockBn(
    (quant_act): QuantAct(activation_bit=8, full_precision_flag=False, quant_mode=symmetric, Act_min: 0.00, Act_max: 0.00)
    (quant_convbn1): (QuantBnConv2d(
      (conv): Conv2d(64, 64, kernel_size=(3, 3), stride=(1, 1), padding=(1, 1), bias=False)
      (bn): BatchNorm2d(64, eps=1e-05, momentum=0.99, affine=True, track_running_stats=True)
    ), weight_bit=8, bias_bit=32, groups=1, wt-channel-wise=True, wt-percentile=0, quant_mode=symmetric)
    (quant_act1): QuantAct(activation_bit=8, full_precision_flag=False, quant_mode=symmetric, Act_min: 0.00, Act_max: 0.00)
    (quant_convbn2): (QuantBnConv2d(
      (conv): Conv2d(64, 64, kernel_size=(3, 3), stride=(1, 1), padding=(1, 1), bias=False)
      (bn): BatchNorm2d(64, eps=1e-05, momentum=0.99, affine=True, track_running_stats=True)
    ), weight_bit=8, bias_bit=32, groups=1, wt-channel-wise=True, wt-percentile=0, quant_mode=symmetric)
    (quant_act_int32): QuantAct(activation_bit=16, full_precision_flag=False, quant_mode=symmetric, Act_min: 0.00, Act_max: 0.00)
  )
  (stage2.unit1): Q_ResBlockBn(
    (quant_act): QuantAct(activation_bit=8, full_precision_flag=False, quant_mode=symmetric, Act_min: 0.00, Act_max: 0.00)
    (quant_convbn1): (QuantBnConv2d(
      (conv): Conv2d(64, 128, kernel_size=(3, 3), stride=(2, 2), padding=(1, 1), bias=False)
      (bn): BatchNorm2d(128, eps=1e-05, momentum=0.99, affine=True, track_running_stats=True)
    ), weight_bit=8, bias_bit=32, groups=1, wt-channel-wise=True, wt-percentile=0, quant_mode=symmetric)
    (quant_act1): QuantAct(activation_bit=8, full_precision_flag=False, quant_mode=symmetric, Act_min: 0.00, Act_max: 0.00)
    (quant_convbn2): (QuantBnConv2d(
      (conv): Conv2d(128, 128, kernel_size=(3, 3), stride=(1, 1), padding=(1, 1), bias=False)
      (bn): BatchNorm2d(128, eps=1e-05, momentum=0.99, affine=True, track_running_stats=True)
    ), weight_bit=8, bias_bit=32, groups=1, wt-channel-wise=True, wt-percentile=0, quant_mode=symmetric)
    (quant_identity_convbn): (QuantBnConv2d(
      (conv): Conv2d(64, 128, kernel_size=(1, 1), stride=(2, 2), bias=False)
      (bn): BatchNorm2d(128, eps=1e-05, momentum=0.99, affine=True, track_running_stats=True)
    ), weight_bit=8, bias_bit=32, groups=1, wt-channel-wise=True, wt-percentile=0, quant_mode=symmetric)
    (quant_act_int32): QuantAct(activation_bit=16, full_precision_flag=False, quant_mode=symmetric, Act_min: 0.00, Act_max: 0.00)
  )
  (stage2.unit2): Q_ResBlockBn(
    (quant_act): QuantAct(activation_bit=8, full_precision_flag=False, quant_mode=symmetric, Act_min: 0.00, Act_max: 0.00)
    (quant_convbn1): (QuantBnConv2d(
      (conv): Conv2d(128, 128, kernel_size=(3, 3), stride=(1, 1), padding=(1, 1), bias=False)
      (bn): BatchNorm2d(128, eps=1e-05, momentum=0.99, affine=True, track_running_stats=True)
    ), weight_bit=8, bias_bit=32, groups=1, wt-channel-wise=True, wt-percentile=0, quant_mode=symmetric)
    (quant_act1): QuantAct(activation_bit=8, full_precision_flag=False, quant_mode=symmetric, Act_min: 0.00, Act_max: 0.00)
    (quant_convbn2): (QuantBnConv2d(
      (conv): Conv2d(128, 128, kernel_size=(3, 3), stride=(1, 1), padding=(1, 1), bias=False)
      (bn): BatchNorm2d(128, eps=1e-05, momentum=0.99, affine=True, track_running_stats=True)
    ), weight_bit=8, bias_bit=32, groups=1, wt-channel-wise=True, wt-percentile=0, quant_mode=symmetric)
    (quant_act_int32): QuantAct(activation_bit=16, full_precision_flag=False, quant_mode=symmetric, Act_min: 0.00, Act_max: 0.00)
  )
  (stage3.unit1): Q_ResBlockBn(
    (quant_act): QuantAct(activation_bit=8, full_precision_flag=False, quant_mode=symmetric, Act_min: 0.00, Act_max: 0.00)
    (quant_convbn1): (QuantBnConv2d(
      (conv): Conv2d(128, 256, kernel_size=(3, 3), stride=(2, 2), padding=(1, 1), bias=False)
      (bn): BatchNorm2d(256, eps=1e-05, momentum=0.99, affine=True, track_running_stats=True)
    ), weight_bit=8, bias_bit=32, groups=1, wt-channel-wise=True, wt-percentile=0, quant_mode=symmetric)
    (quant_act1): QuantAct(activation_bit=8, full_precision_flag=False, quant_mode=symmetric, Act_min: 0.00, Act_max: 0.00)
    (quant_convbn2): (QuantBnConv2d(
      (conv): Conv2d(256, 256, kernel_size=(3, 3), stride=(1, 1), padding=(1, 1), bias=False)
      (bn): BatchNorm2d(256, eps=1e-05, momentum=0.99, affine=True, track_running_stats=True)
    ), weight_bit=8, bias_bit=32, groups=1, wt-channel-wise=True, wt-percentile=0, quant_mode=symmetric)
    (quant_identity_convbn): (QuantBnConv2d(
      (conv): Conv2d(128, 256, kernel_size=(1, 1), stride=(2, 2), bias=False)
      (bn): BatchNorm2d(256, eps=1e-05, momentum=0.99, affine=True, track_running_stats=True)
    ), weight_bit=8, bias_bit=32, groups=1, wt-channel-wise=True, wt-percentile=0, quant_mode=symmetric)
    (quant_act_int32): QuantAct(activation_bit=16, full_precision_flag=False, quant_mode=symmetric, Act_min: 0.00, Act_max: 0.00)
  )
  (stage3.unit2): Q_ResBlockBn(
    (quant_act): QuantAct(activation_bit=8, full_precision_flag=False, quant_mode=symmetric, Act_min: 0.00, Act_max: 0.00)
    (quant_convbn1): (QuantBnConv2d(
      (conv): Conv2d(256, 256, kernel_size=(3, 3), stride=(1, 1), padding=(1, 1), bias=False)
      (bn): BatchNorm2d(256, eps=1e-05, momentum=0.99, affine=True, track_running_stats=True)
    ), weight_bit=8, bias_bit=32, groups=1, wt-channel-wise=True, wt-percentile=0, quant_mode=symmetric)
    (quant_act1): QuantAct(activation_bit=8, full_precision_flag=False, quant_mode=symmetric, Act_min: 0.00, Act_max: 0.00)
    (quant_convbn2): (QuantBnConv2d(
      (conv): Conv2d(256, 256, kernel_size=(3, 3), stride=(1, 1), padding=(1, 1), bias=False)
      (bn): BatchNorm2d(256, eps=1e-05, momentum=0.99, affine=True, track_running_stats=True)
    ), weight_bit=8, bias_bit=32, groups=1, wt-channel-wise=True, wt-percentile=0, quant_mode=symmetric)
    (quant_act_int32): QuantAct(activation_bit=16, full_precision_flag=False, quant_mode=symmetric, Act_min: 0.00, Act_max: 0.00)
  )
  (stage4.unit1): Q_ResBlockBn(
    (quant_act): QuantAct(activation_bit=8, full_precision_flag=False, quant_mode=symmetric, Act_min: 0.00, Act_max: 0.00)
    (quant_convbn1): (QuantBnConv2d(
      (conv): Conv2d(256, 512, kernel_size=(3, 3), stride=(2, 2), padding=(1, 1), bias=False)
      (bn): BatchNorm2d(512, eps=1e-05, momentum=0.99, affine=True, track_running_stats=True)
    ), weight_bit=8, bias_bit=32, groups=1, wt-channel-wise=True, wt-percentile=0, quant_mode=symmetric)
    (quant_act1): QuantAct(activation_bit=8, full_precision_flag=False, quant_mode=symmetric, Act_min: 0.00, Act_max: 0.00)
    (quant_convbn2): (QuantBnConv2d(
      (conv): Conv2d(512, 512, kernel_size=(3, 3), stride=(1, 1), padding=(1, 1), bias=False)
      (bn): BatchNorm2d(512, eps=1e-05, momentum=0.99, affine=True, track_running_stats=True)
    ), weight_bit=8, bias_bit=32, groups=1, wt-channel-wise=True, wt-percentile=0, quant_mode=symmetric)
    (quant_identity_convbn): (QuantBnConv2d(
      (conv): Conv2d(256, 512, kernel_size=(1, 1), stride=(2, 2), bias=False)
      (bn): BatchNorm2d(512, eps=1e-05, momentum=0.99, affine=True, track_running_stats=True)
    ), weight_bit=8, bias_bit=32, groups=1, wt-channel-wise=True, wt-percentile=0, quant_mode=symmetric)
    (quant_act_int32): QuantAct(activation_bit=16, full_precision_flag=False, quant_mode=symmetric, Act_min: 0.00, Act_max: 0.00)
  )
  (stage4.unit2): Q_ResBlockBn(
    (quant_act): QuantAct(activation_bit=8, full_precision_flag=False, quant_mode=symmetric, Act_min: 0.00, Act_max: 0.00)
    (quant_convbn1): (QuantBnConv2d(
      (conv): Conv2d(512, 512, kernel_size=(3, 3), stride=(1, 1), padding=(1, 1), bias=False)
      (bn): BatchNorm2d(512, eps=1e-05, momentum=0.99, affine=True, track_running_stats=True)
    ), weight_bit=8, bias_bit=32, groups=1, wt-channel-wise=True, wt-percentile=0, quant_mode=symmetric)
    (quant_act1): QuantAct(activation_bit=8, full_precision_flag=False, quant_mode=symmetric, Act_min: 0.00, Act_max: 0.00)
    (quant_convbn2): (QuantBnConv2d(
      (conv): Conv2d(512, 512, kernel_size=(3, 3), stride=(1, 1), padding=(1, 1), bias=False)
      (bn): BatchNorm2d(512, eps=1e-05, momentum=0.99, affine=True, track_running_stats=True)
    ), weight_bit=8, bias_bit=32, groups=1, wt-channel-wise=True, wt-percentile=0, quant_mode=symmetric)
    (quant_act_int32): QuantAct(activation_bit=16, full_precision_flag=False, quant_mode=symmetric, Act_min: 0.00, Act_max: 0.00)
  )
  (final_pool): QuantAveragePool2d(
    (final_pool): AvgPool2d(kernel_size=7, stride=1, padding=0)
…
